snake/model/model.pth (torch, 16787 bytes, 4 tensors)

linear1.weight f4 [256, 11]
0	0xbee10df9	-0.43955973
1	0xbd34468c	-0.04401259
2	0x3e91caa3	0.28474912
3	0xbd646f8a	-0.055770434
4	0xbe1b5cc6	-0.15172109
5	0xbe5e8afe	-0.21732709
6	0x3dbdd5bc	0.09269282
7	0x3e364ab5	0.17801936
8	0x3e920ad6	0.28523892
9	0xbcb61b8f	-0.022229938
10	0x3ca8ff85	0.020629654
11	0x3f09c4fe	0.5381621
12	0xbe9dd28b	-0.30824694
13	0x3e66c619	0.22536506
14	0x3db7107c	0.08938691
15	0xbe9b30dd	-0.30310717
16	0x3e224a5b	0.15848677
17	0x3df0fc63	0.11766889
18	0x3d02b752	0.03191311
19	0x3ebbfb77	0.3671529
20	0xbdbfe161	-0.093691595
21	0xbd90df22	-0.07073809
22	0x3ecab560	0.39591503
23	0x3eb40c1c	0.3516549
24	0x3ea44907	0.32086965
25	0xbde1357b	-0.10996529
26	0x3cb287b8	0.021793231
27	0x3e26e314	0.16297561
28	0xbd3f8a4f	-0.04676276
29	0x3d61d0f2	0.055130906
30	0xbd6d3f60	-0.057921767
31	0x3eabc8c5	0.33551612
32	0xbbb4c6bc	-0.005516855
33	0x3f065dcb	0.52486867
34	0x3e8c3785	0.27386108
35	0xbef5e44b	-0.48025736
36	0x3e2d2bfb	0.16911308
37	0x3e051ffd	0.13000484
38	0x3d746100	0.05966282
39	0xbe51b31c	-0.20478481
40	0x3e639d17	0.22227894
41	0xbd17c925	-0.03705706
42	0xbe1e3531	-0.15449978
43	0x3d41557d	0.04720067
44	0xbe2a6e6d	-0.16643687
45	0xbd088e22	-0.033338673
46	0x3ccad439	0.024759399
47	0xbeaa48b6	-0.332586
48	0xbe6d4226	-0.23169765
49	0x3e1732ff	0.14765547
50	0xbe896c01	-0.26840213
51	0xbea3be59	-0.3198116
52	0xbe35cdca	-0.17754284
53	0x3dbe9b28	0.093069375
54	0xbdf01158	-0.11722058
55	0xbee1c2b8	-0.4409387
56	0x3efb38e7	0.4906685
57	0x3dc7451e	0.0972998
58	0xbdabc3fb	-0.0838699
59	0x3e8d9067	0.27649233
60	0x3e14f305	0.1454583
61	0xbe00fdee	-0.12596866
62	0x3e720dba	0.23638049
63	0x3d08569c	0.033285722
64	0xbe4784a3	-0.1948419
65	0x3d1b2a59	0.037882183
66	0xbde72fe1	-0.11288429
67	0xbd9dcbd1	-0.077048905
68	0x3d43d70e	0.047812514
69	0x3f0758f6	0.5287012
70	0x3efb77b7	0.49114773
71	0x3d3f3f40	0.04669118
72	0x3e3701fc	0.1787185
73	0xbea09330	-0.31362295
74	0xbee70b84	-0.45125973
75	0x3e096dbd	0.13420768
76	0x3da9e986	0.08296494
77	0xbee37850	-0.4442773
78	0x3e82c4ac	0.25540674
79	0x3ee8c0bc	0.45459545
80	0x3e4cb69d	0.19991536
81	0x3dcac86f	0.09901511
82	0xbd654d31	-0.05598182
83	0x3e5b845e	0.21437213
84	0x3e15f2c9	0.14643396
85	0xbd8606ca	-0.06544264
86	0x3e1ee465	0.15516813
87	0xbbffbdcc	-0.007804608
88	0xbe5a0bda	-0.21293584
89	0xbe09ca99	-0.13456191
90	0xbec27e28	-0.37986875
91	0x3db2f69e	0.08738445
92	0x3e0335b6	0.12813458
93	0x3e3a9e9b	0.18224566
94	0x3e9c4abd	0.3052577
95	0x3da5af87	0.0809012
96	0xbe913a22	-0.28364664
97	0xbd6c43ee	-0.05768197
98	0xbc9d9bf0	-0.019239396
99	0x3e05a923	0.13052802
100	0xbe9e04a8	-0.30862927
101	0x3e04b742	0.12960532
102	0x3e6e2dde	0.23259684
103	0xbeab0ba7	-0.33407328
104	0xbe70289f	-0.23452996
105	0xbd9d8d30	-0.07692945
106	0xbd75203b	-0.05984519
107	0x3eb12b7c	0.34603488
108	0x3e46d7e0	0.19418287
109	0xbe2fc21f	-0.17163895
110	0x3e9a22cb	0.3010467
111	0x3dec5a50	0.11540663
112	0xbee90d49	-0.45517948
113	0x3e71baa3	0.23606353
114	0x3dcd5e69	0.10027773
115	0x3eefb64b	0.46818766
116	0x3d3631e3	0.04448117
117	0xbd9750c7	-0.07388454
118	0x3d93ff96	0.072264835
119	0xbe8708cd	-0.26373902
120	0x3da223c4	0.07916978
121	0xbee8a3f4	-0.45437586
122	0xbd309eeb	-0.043120306
123	0x3c90047f	0.017580269
124	0xbe747f90	-0.23876786
125	0xbe1a8700	-0.15090561
126	0xbe32256e	-0.17397091
127	0xbe0e6415	-0.13905366
128	0x3e221444	0.15828043
129	0x3e305330	0.17219234
130	0xbda6168d	-0.0810977
131	0x3de2e65b	0.11079093
132	0xbe1432ce	-0.14472505
133	0xbd4cbfa7	-0.04998746
134	0x3d79420d	0.060854007
135	0x3de7a26f	0.113102786
136	0xbec400d1	-0.38281873
137	0x3e06147d	0.13093753
138	0xbd91b82c	-0.07115206
139	0x3cb25625	0.021769593
140	0xbb9245b7	-0.004463877
141	0xbe9d61fe	-0.30738825
142	0x3e0a1738	0.1348542
143	0x3ea0577a	0.3131674
144	0x3ebccaef	0.36873576
145	0x3e2dedf3	0.16985302
146	0xbeaa86f8	-0.33306098
147	0xbdadfcdd	-0.084954955
148	0xbcd7bcfc	-0.026335232
149	0x3abaa1be	0.0014238877
150	0x3ed916ed	0.42400303
151	0x3e691287	0.22760974
152	0x3e2105ba	0.15724841
153	0x3db8ecb6	0.09029524
154	0x3d50071e	0.050788037
155	0xbddd52a3	-0.10806777
156	0xbc7ac458	-0.015305601
157	0xbe9261ed	-0.28590336
158	0x3d43d54b	0.047810834
159	0x3da4594b	0.08024844
160	0xbe240e9b	-0.16021197
161	0x3de11169	0.10989649
162	0x3ec07b47	0.37594053
163	0x3dc88d2f	0.09792554
164	0xbc2a75c8	-0.010404058
165	0xbd555626	-0.05208411
166	0x3ee98b9d	0.4561433
167	0xbe1ea707	-0.15493403
168	0x3e28e96f	0.16495298
169	0xbdc45695	-0.09586827
170	0x3e30e7fc	0.17275995
171	0x3d26ebab	0.040752094
172	0xbd0407fe	-0.032234184
173	0x3eb651ea	0.3560937
174	0x3cd5df6c	0.026107512
175	0x3e4195b4	0.18904763
176	0x3da55bd2	0.08074154
177	0x3d7ae804	0.061256424
178	0xbe358a13	-0.17728452
179	0xbd74cbb9	-0.059764598
180	0xbe0ac159	-0.13550319
181	0xbe3eb4e2	-0.18623689
182	0xbe057a0d	-0.1303484
183	0xbe992777	-0.29912922
184	0x3c893967	0.016751004
185	0xbea0b718	-0.3138969
186	0xbeeadec2	-0.45873076
187	0x3f0af755	0.5428365
188	0xbec29084	-0.38000882
189	0xbea918fe	-0.3302688
190	0xbe06abc6	-0.13151464
191	0xbde58b44	-0.112082034
192	0x3d8ae3d5	0.06781737
193	0xbd4d43fe	-0.05011367
194	0x3e47679a	0.19473115
195	0x3dfa00f2	0.122072116
196	0x3e767f8e	0.24072096
197	0x3db0a876	0.086258814
198	0x3e225ae2	0.15854982
199	0xbde2deb9	-0.11077637
200	0x3e70731b	0.23481409
201	0x3e12bf0e	0.14330694
202	0xbc97e594	-0.018542089
203	0xbca0dc1e	-0.01963621
204	0xbe85dc6b	-0.26144728
205	0xbd94f430	-0.072731376
206	0xbe2eccaf	-0.17070268
207	0xbcdfd6a5	-0.02732403
208	0x3ea712ca	0.32631522
209	0xbeef8718	-0.46782756
210	0x3ebaecce	0.36508793
211	0x3ebdd5b1	0.37077096
212	0xbe11e93f	-0.14249133
213	0x3d84aa02	0.06477739
214	0x3cf81e6d	0.030287946
215	0x3dfe6aae	0.12422691
216	0xbba266c8	-0.0049561
217	0x3dfb0c77	0.12258237
218	0x3e215378	0.15754497
219	0xbc96a528	-0.0183893
220	0x3e4ffaa6	0.20310459
221	0x3ec03e2e	0.3754744
222	0xbec5b846	-0.38617152
223	0xba39e527	-0.00070913363
224	0xbcd5d416	-0.026102107
225	0xbe89d432	-0.26919705
226	0xbe994c94	-0.29941237
227	0x3d363ae5	0.04448976
228	0xbe70968d	-0.2349493
229	0xbd459313	-0.048235964
230	0xbeaaed21	-0.3338404
231	0xbe84be6b	-0.25926527
232	0xbe93929c	-0.28822792
233	0x3ef4d872	0.47821385
234	0x3dd6b2e1	0.10483337
235	0x3dde8051	0.10864318
236	0xbea45b81	-0.32101062
237	0xbe33444a	-0.17506519
238	0x3e26550c	0.1624338
239	0xbe0b29c0	-0.13590145
240	0xbecb8b35	-0.39754644
241	0xbe08e27c	-0.13367647
242	0xbde8cdaf	-0.11367356
243	0x3e1697a2	0.14706281
244	0x3de2f0c0	0.11081076
245	0xbe9c5752	-0.3053537
246	0x3d49072d	0.04907911
247	0xbd88c3ef	-0.06677996
248	0xbe5a1b58	-0.21299493
249	0x3eaced66	0.3377487
250	0xbef288c2	-0.47369963
251	0xbc9b7516	-0.01897673
252	0x3e854dd1	0.26035932
253	0xbf11196a	-0.56679404
254	0x3f0120f8	0.5044093
255	0xbdc8c3b2	-0.09802951

linear1.bias f4 [256]
0	0x3e67bcfa	0.22630683
1	0xbdeafc16	-0.11473863
2	0x3d0c910b	0.03431801
3	0x3e24ad7e	0.16081807
4	0x3e298866	0.16555938
5	0x3ec7d47a	0.39029294
6	0xbe9b8d98	-0.30381465
7	0x3e247214	0.16059142
8	0x3d99d192	0.075106755
9	0xbd8c5c35	-0.068535246
10	0xbe32c6e3	-0.17458682
11	0x3ec0cdfa	0.37657148
12	0xbdd0e385	-0.10199646
13	0xbe0060d6	-0.1253694
14	0x3df6c692	0.12049593
15	0xbc5314a1	-0.012883336
16	0x3e27be7f	0.16381262
17	0x3c710470	0.014710531
18	0xbd6b254c	-0.057408616
19	0x3e9f9edb	0.31175885
20	0xbc14dcab	-0.0090858145
21	0x3dd8035c	0.10547516
22	0xbcfb6062	-0.030685607
23	0x3e3aae26	0.18230495
24	0xbdd7692f	-0.10518109
25	0xbe8e86af	-0.2783713
26	0x3e8716ab	0.26384482
27	0x3e835af4	0.2565533
28	0xbc2cd19e	-0.0105480235
29	0x3de52e2a	0.11190446
30	0x3dff5ce9	0.12468893
31	0x3e120720	0.1426053
32	0x3dfff3e3	0.124976896
33	0xbe06d3a6	-0.13166675
34	0xbccd1a71	-0.025037022
35	0xbcc9dbbf	-0.024640916
36	0xbd048f7b	-0.032363396
37	0xbe2c48cc	-0.16824645
38	0x3e65602b	0.22399966
39	0xbdea1709	-0.11430175
40	0x3dd9aff2	0.10629262
41	0xbeb388d1	-0.3506532
42	0x3de023f1	0.10944355
43	0x3d3edea5	0.04659905
44	0xbeb4299d	-0.35187998
45	0xbe4a3902	-0.19748309
46	0x3e3cb10f	0.18426917
47	0xbd75e2c0	-0.0600307
48	0x3d4934e7	0.049122717
49	0x3df66ec5	0.12032846
50	0xbe3c9d16	-0.18419299
51	0xbe615761	-0.22005989
52	0xbe0910b0	-0.13385272
53	0xbea7f76a	-0.3280595
54	0x3e879853	0.26483402
55	0xbe9e2372	-0.30886418
56	0xbe70388f	-0.23459075
57	0x3e26a564	0.16274029
58	0xbe9566be	-0.2917995
59	0x3e833377	0.25625202
60	0x3d803776	0.06260578
61	0x3d3e0194	0.046388224
62	0xbe927ca7	-0.28610727
63	0xbe0620d6	-0.13098463
64	0x3e49dace	0.19712374
65	0xbc6743c8	-0.014115281
66	0xbcfbb7c6	-0.030727278
67	0x3e0d2430	0.13783336
68	0xbe67758e	-0.22603437
69	0xbe359bf8	-0.17735279
70	0xbe8110f4	-0.25208247
71	0xbca2f2c2	-0.019891147
72	0xbdcd6c69	-0.10030443
73	0x3e273718	0.1632961
74	0x3d223883	0.039604675
75	0xbda04893	-0.078263424
76	0xbd970080	-0.07373142
77	0xbe2792ea	-0.16364637
78	0x3cb34e2e	0.021887865
79	0x3d9e2a2b	0.07722887
80	0xbe99cec6	-0.30040568
81	0xbe4fb0e6	-0.20282325
82	0xbc83a42e	-0.016069498
83	0xbe8bea85	-0.27327362
84	0xbda3c7f8	-0.079971254
85	0x3dfaba18	0.12242526
86	0xbc91ca32	-0.01779661
87	0x3e721ac4	0.23643023
88	0x3c7d72bf	0.015469252
89	0x3d1aff07	0.03784087
90	0xbca56dce	-0.02019396
91	0xbe2f14ed	-0.17097826
92	0xbde6fa80	-0.11278248
93	0xbd5e6a1c	-0.054300413
94	0xbe4acaa6	-0.19803867
95	0x3e048625	0.12941797
96	0x3e5a655c	0.21327728
97	0xbedc2d4d	-0.43003312
98	0x3c14d9fc	0.009085175
99	0x3d8e2e73	0.06942453
100	0xbe26926a	-0.1626679
101	0xbd5e70fd	-0.054306973
102	0xbe8933c3	-0.26797304
103	0xbda06f8a	-0.078337744
104	0xbda454bc	-0.08023974
105	0xbd0ea268	-0.03482285
106	0xbe66e4a4	-0.22548157
107	0x3d9092d8	0.07059258
108	0xbece5c72	-0.40304905
109	0xbe356aee	-0.17716572
110	0xbe8ea6e1	-0.27861694
111	0x3e09eb4e	0.13468668
112	0x3e3dfb5e	0.1855292
113	0x3e28ee47	0.16497146
114	0x3ddba893	0.10725512
115	0xbd998fa3	-0.074981
116	0x3dcc0b2e	0.0996307
117	0x3cd70ba4	0.026250668
118	0x3da69624	0.08134106
119	0xbe656b30	-0.2240417
120	0xbe5f9c5b	-0.21836989
121	0xbde248c4	-0.11049035
122	0x3d38f788	0.04515794
123	0x3d42852f	0.047490295
124	0xbdd7df9e	-0.105406985
125	0xbca6a16d	-0.020340646
126	0x3e02c497	0.12770306
127	0x3ea099b0	0.31367254
128	0xbd868e16	-0.065700695
129	0x3cbf1e3f	0.023329852
130	0x3de6e721	0.11274553
131	0xbd5ff191	-0.054673735
132	0xbe4fdb03	-0.2029839
133	0xbe22712b	-0.15863483
134	0xbd22204e	-0.03958159
135	0x3e2dcdf3	0.16973095
136	0xbe75e3d9	-0.24012698
137	0xbd3a7235	-0.045519073
138	0xbe053600	-0.1300888
139	0xbe2bbc7c	-0.1677112
140	0xbd068f0f	-0.032851275
141	0x3d00f20f	0.031480845
142	0xbd5b834a	-0.053592004
143	0x3e4cda02	0.20005038
144	0x3e16b1d8	0.1471628
145	0xbe74ccbf	-0.2390623
146	0xbe15d5f6	-0.14632401
147	0x3d5ec5ab	0.05438773
148	0x3e99081e	0.29889005
149	0x3a748af0	0.00093285646
150	0xbd2455b4	-0.040120795
151	0x3d200b03	0.039073
152	0x3e96d6fe	0.294609
153	0x3cadff64	0.021239944
154	0x3e00f2c7	0.12592612
155	0xbe6f1e3f	-0.23351382
156	0xbd824ad8	-0.063619316
157	0x3dfd5f57	0.123717
158	0x3d5c4033	0.053772163
159	0xbe037847	-0.12838851
160	0x3e2960f7	0.16540895
161	0x3dca2f3d	0.09872291
162	0xbe1242ee	-0.14283344
163	0x3cbe0ff9	0.023200976
164	0xbd9b4e8a	-0.075833395
165	0x3cd7189b	0.02625685
166	0x3e45d116	0.19318041
167	0x3e083b61	0.13303901
168	0xbde8ff27	-0.113767914
169	0x3e313ef3	0.1730917
170	0x3e0b5b26	0.13608989
171	0x3d90d99d	0.070727564
172	0x3ed6d6ec	0.41960847
173	0xbcbe4ffe	-0.023231503
174	0xbd6f9058	-0.058487266
175	0x3d982c34	0.07430306
176	0xbe8a63be	-0.27029222
177	0x3e98845f	0.2978849
178	0xbdeac66f	-0.114636295
179	0xbe332a07	-0.17496501
180	0xbeaba846	-0.3352682
181	0x3da0ac04	0.078453094
182	0xbdd11d1e	-0.10210632
183	0xbdc63930	-0.096788764
184	0xbe1d0831	-0.15335156
185	0x3e801547	0.25016233
186	0xbd062fa3	-0.032760274
187	0x3e53c9df	0.20682476
188	0x3d9a7730	0.075422645
189	0xbd81b240	-0.063328266
190	0x3e90bd86	0.28269595
191	0x3ead9a9f	0.3390703
192	0xbe3ea908	-0.18619168
193	0xbd13a6fd	-0.036047924
194	0xbe7e9296	-0.24860606
195	0xbeba7b40	-0.36422157
196	0xbea197e0	-0.31561184
197	0x3c2785cc	0.010224771
198	0xbded5976	-0.11589329
199	0xbda2804a	-0.079346254
200	0xbd7c892a	-0.061654247
201	0xbdb64c92	-0.089013234
202	0x3e24f8c6	0.16110525
203	0x3c854538	0.016268358
204	0x3e014c49	0.12626757
205	0x3c9694f6	0.018381577
206	0xbe09ff78	-0.1347636
207	0xbe5adcb6	-0.21373257
208	0xbdc34a1a	-0.09535618
209	0x3e532464	0.2061935
210	0xbe553133	-0.2081955
211	0x3e0ff212	0.14057186
212	0x3d606b07	0.05478957
213	0x3ec1202a	0.37719852
214	0xbea4788b	-0.32123217
215	0x3ec11407	0.37710592
216	0x3e9b5611	0.303391
217	0xbe4140ee	-0.18872425
218	0x3c178a34	0.009249259
219	0xbe7edecc	-0.24889678
220	0x3dc55517	0.0963537
221	0xbca2de2e	-0.019881334
222	0x3dae1c67	0.08501511
223	0x3eb9444a	0.36184913
224	0xbdc12263	-0.09430387
225	0x3eaa7ecd	0.33299866
226	0xbd06bcb5	-0.03289481
227	0x3b9e13fa	0.0048241587
228	0x3df1c6b5	0.118054785
229	0xbd681de4	-0.05666913
230	0x3de21f1e	0.110410914
231	0xbdc74dc7	-0.09731632
232	0x3d88d256	0.066807434
233	0x3e14ab9f	0.14518593
234	0x3eb1c8ad	0.34723416
235	0x3d7b0354	0.06128247
236	0x3e330cb2	0.17485312
237	0x3dec315b	0.11532851
238	0x3db31ce8	0.08745748
239	0xbe2e1bcc	-0.17002791
240	0xbe26d39e	-0.16291663
241	0xbd44bc27	-0.048031
242	0x3e9d50a8	0.30725598
243	0x3db71687	0.089398436
244	0xbdefcb8f	-0.117087476
245	0x3dfca86f	0.12336814
246	0xbe139db9	-0.14415635
247	0x3e95016e	0.29102653
248	0x3dcd2178	0.10016149
249	0xbe1ddc00	-0.15415955
250	0xbe0e0d0b	-0.13872163
251	0xbea55425	-0.3229076
252	0xbe035db5	-0.12828715
253	0xbe7f2b49	-0.24918856
254	0xbe2346e8	-0.15945017
255	0xbdde7321	-0.10861803

linear2.weight f4 [3, 256]
0	0x3cd26c6e	0.025686469
1	0xbe87a44e	-0.26492542
2	0xbdc6b9ad	-0.097033836
3	0xbdda310f	-0.106538884
4	0x3e7fadec	0.2496869
5	0x3dbae65c	0.09125969
6	0xbedc650d	-0.43045846
7	0x3dfe0c38	0.12404674
8	0x3e09b929	0.13449539
9	0xbd6896e7	-0.056784537
10	0xbe1883d8	-0.14894044
11	0x3d417bac	0.047237083
12	0xbc9d08f6	-0.019169312
13	0xbe8926b2	-0.26787335
14	0xbd932eb7	-0.071866445
15	0xbd485495	-0.04890879
16	0xbdcc4176	-0.09973423
17	0xbe4a6a60	-0.19767141
18	0xbe36bf8e	-0.1784651
19	0x3e090e92	0.13384464
20	0xbe17ce1a	-0.14824715
21	0x3e1cb485	0.15303238
22	0xbe1f4923	-0.15555243
23	0x3c66f871	0.014097319
24	0xbefe20c6	-0.4963438
25	0x3d3ff85c	0.046867713
26	0x3e69330a	0.22773376
27	0xbd3645c7	-0.04450014
28	0x3e87ccc1	0.26523402
29	0x3df5b567	0.119974904
30	0xbee7e793	-0.45293865
31	0x3b297b65	0.0025860902
32	0xbe65981e	-0.2242131
33	0xbe0edf26	-0.13952312
34	0xbe3f1202	-0.18659213
35	0x3d718b09	0.058970485
36	0xbcab3cc0	-0.020902991
37	0x3c0c0738	0.008546643
38	0x3e8a6104	0.27027142
39	0xbe8450f7	-0.2584302
40	0x3e65bcfd	0.22435375
41	0x3dcc0da5	0.0996354
42	0x3caaf1ea	0.020867307
43	0x3e0a57c2	0.1351004
44	0xbccd9ef6	-0.025100213
45	0xbea191fa	-0.31556684
46	0xbdf9d10f	-0.12198078
47	0x3e1c39cf	0.15256427
48	0x3e3681b0	0.1782291
49	0x3e899635	0.2687241
50	0xbe02d504	-0.12776572
51	0x3db22b7f	0.086997025
52	0x3a9a637b	0.0011778915
53	0x3c89c2fe	0.016816612
54	0x3d8a0bec	0.06740555
55	0xbd89f4cd	-0.06736145
56	0x3e3ca869	0.18423618
57	0x3ca03521	0.019556584
58	0x3d6b192b	0.05739705
59	0xbe55d62d	-0.20882483
60	0xbd83a0b7	-0.06427138
61	0xbd93aa09	-0.07210166
62	0xbcc5e28a	-0.024155874
63	0x3de77333	0.113012694
64	0xbd060812	-0.03272254
65	0xbe20de54	-0.15709811
66	0x3ea95691	0.33073857
67	0x3e7ad2e9	0.24494518
68	0x3d2295cd	0.039693642
69	0xbe1c5683	-0.15267377
70	0x3dc37c62	0.095452085
71	0x3dfe9f3c	0.12432715
72	0x3c5262b1	0.012840913
73	0xbe0f78c4	-0.14010912
74	0x3d26e4ea	0.040745653
75	0xbe1bf3e8	-0.15229762
76	0x3dcdba60	0.10045314
77	0xbe3aba6b	-0.18235175
78	0xbe885e07	-0.26634237
79	0x3d8878d1	0.06663669
80	0x3cdf32c5	0.027245888
81	0xbe9431b2	-0.28944165
82	0x3e9620c1	0.29321864
83	0x3e03aa98	0.12858045
84	0xbe3efcd8	-0.1865114
85	0x3e95c29e	0.29250044
86	0xbeb652de	-0.35610098
87	0x3db6f90f	0.08934223
88	0xbe42e56f	-0.19032834
89	0xbe11f7a4	-0.14254624
90	0xbf06ea1e	-0.52700984
91	0x3d619155	0.05507024
92	0x3d0b4d32	0.034009166
93	0xbe62fa07	-0.2216569
94	0xbe8ccfad	-0.27502194
95	0x3e0d5ecb	0.13805692
96	0x3e8e5867	0.2780182
97	0xbcaaf777	-0.020869954
98	0xbd76c6d2	-0.060248204
99	0xbbfcf960	-0.0077201575
100	0x3ded791c	0.115953654
101	0xbd9f2d38	-0.07772297
102	0xbbd2bee1	-0.006431446
103	0x3e1bf86e	0.15231487
104	0xbe4e304a	-0.20135608
105	0x3d85f283	0.06540396
106	0xbea6e74f	-0.3259835
107	0x3e9d0fd6	0.30676144
108	0x3d79d725	0.060996193
109	0xbe4419dd	-0.19150491
110	0xbb1bf1ab	-0.0023795168
111	0xbe37d798	-0.17953336
112	0xbe102370	-0.14076018
113	0xbca1e075	-0.01976035
114	0xbe55d191	-0.20880724
115	0xbe6748c4	-0.22586352
116	0x3c605c82	0.013693931
117	0x3e069ca7	0.13145696
118	0xbb8d32a9	-0.0043090177
119	0xbe56c594	-0.20973808
120	0x3cdbe4c4	0.026842482
121	0xbe82800a	-0.2548831
122	0xbe2298e1	-0.15878631
123	0xbd59861a	-0.053106405
124	0xbe309ecb	-0.17248075
125	0xbe2c2f2a	-0.16814867
126	0xbdda8b2d	-0.10671077
127	0x3ebf9561	0.37418655
128	0xbdeaa707	-0.11457639
129	0x3d5421d7	0.051790085
130	0x3ecc82c9	0.3994353
131	0xbe6ee077	-0.23327814
132	0x3ea108f0	0.3145213
133	0xbd52e30b	-0.051486056
134	0xbd389583	-0.04506446
135	0x3e50287b	0.20327942
136	0x3d1bab34	0.03800507
137	0xbe07da66	-0.13266906
138	0x3e86912b	0.2628263
139	0xbe8eb5c1	-0.27873042
140	0xbae06eab	-0.0017122825
141	0x3ddc0c4c	0.10744533
142	0xbdf55089	-0.119782515
143	0x3e419264	0.189035
144	0x3c8200c4	0.015869506
145	0xbc60ebc0	-0.013728082
146	0x3d1443cc	0.03619747
147	0xbe409acc	-0.1880905
148	0x3e7ca197	0.24671017
149	0xbe817c71	-0.25290254
150	0xbe2e6661	-0.17031242
151	0xbdd00ca1	-0.10158659
152	0x3e710d9d	0.2354035
153	0xbe75a6e8	-0.23989451
154	0xbe872101	-0.26392367
155	0xbe3a07c5	-0.18167026
156	0xbb19855e	-0.002342544
157	0xbd6a69e2	-0.057229884
158	0x3df5e744	0.12007001
159	0xbdeb354a	-0.114847735
160	0xbd8b19ef	-0.06792056
161	0x3d789f0e	0.06069856
162	0xbe99696b	-0.2996324
163	0xbdab0cf0	-0.08352077
164	0xbeed4aaf	-0.46346042
165	0xbe26f6fe	-0.16305158
166	0xbd86a9ed	-0.065753795
167	0xbdc82731	-0.097731
168	0x3e6282c0	0.2212019
169	0x3d9d56d6	0.07682578
170	0xbec9ef20	-0.3944025
171	0xbe324c71	-0.17411973
172	0x3e75c93e	0.24002549
173	0xbef80fe5	-0.48449627
174	0x3d6fa692	0.058508463
175	0xbd8bda2c	-0.06828722
176	0x3da6d9c3	0.081470035
177	0xbd40f685	-0.0471101
178	0x3ecaa6bd	0.39580336
179	0xbe626e50	-0.22112393
180	0x3cabbda6	0.020964455
181	0x3c625652	0.013814526
182	0x3dcc52a2	0.099766985
183	0xbe71078a	-0.23538032
184	0xbd0ecbc0	-0.03486228
185	0xbdaa1d03	-0.08306315
186	0xbe428b33	-0.18998413
187	0x3e0e71a1	0.13910533
188	0xbe71fe24	-0.23632103
189	0xbe206043	-0.15661721
190	0x3c999875	0.018749455
191	0x3df8c6b9	0.12147278
192	0xbea42ab1	-0.3206382
193	0x3e9a2aac	0.3011068
194	0x3d2e52bb	0.042559367
195	0x3c6fce4e	0.014636589
196	0x3ca44e79	0.02005695
197	0xbe58e992	-0.2118285
198	0xbe1af06d	-0.15130778
199	0xbe7e6ec0	-0.24846935
200	0xbe772fd8	-0.24139345
201	0x3eaecdb2	0.34141308
202	0xbd495648	-0.04915455
203	0xbdd2cd55	-0.1029307
204	0xbdcae20c	-0.09906396
205	0x3e11e217	0.14246403
206	0xbe92430f	-0.28566787
207	0xbe71670a	-0.23574463
208	0xbe75fc6a	-0.2402207
209	0x3c895745	0.016765246
210	0xbe9bdbbe	-0.30441087
211	0xbe3173e3	-0.17329364
212	0xbe2f9914	-0.17148238
213	0x3e5c58a4	0.21518189
214	0xbdcbf4b1	-0.099587806
215	0x3e65de2f	0.22448038
216	0x3d37da30	0.044885814
217	0xbe2070ac	-0.15667981
218	0x3e0e1306	0.13874444
219	0xbcaf12e6	-0.021371316
220	0x3e2cd585	0.16878326
221	0xbe304393	-0.17213278
222	0xbe4631c2	-0.19354919
223	0x3e82e18b	0.255627
224	0xbe49bfea	-0.19702116
225	0x3df4815e	0.11938737
226	0xbcf4774f	-0.029842047
227	0x3d1d2bf4	0.038371995
228	0xbd9a6458	-0.0753867
229	0xbd13b84e	-0.03606444
230	0x3eb28fb2	0.34875256
231	0xbe65f6a1	-0.22457363
232	0x3e91c327	0.28469202
233	0xbebb7853	-0.36615238
234	0xbdc83329	-0.09775383
235	0xbe7b3a1c	-0.24533886
236	0x3e48f164	0.19623333
237	0x3cc93a3a	0.024563897
238	0x3dc6999a	0.09697266
239	0xbce78b03	-0.028264528
240	0x3c0f660b	0.008752356
241	0x3e6a2bc0	0.22868252
242	0x3db3e11c	0.087831706
243	0xbe16d75f	-0.14730595
244	0xbccf7035	-0.02532206
245	0x3da7084c	0.081558794
246	0x3ea31bc6	0.31857127
247	0x3e23e93b	0.16006939
248	0x3e612d1d	0.21989866
249	0x3e9b7ca5	0.30368534
250	0xbe556c14	-0.2084201
251	0xbd0fc9cf	-0.03510457
252	0xbd401a4f	-0.04690009
253	0xbea28bf9	-0.31747416
254	0xbd13d390	-0.036090434
255	0xbe11f00c	-0.14251727

linear2.bias f4 [3]
0	0x3d567ab7	0.052363124
1	0xbd5bd6d0	-0.053671658
2	0xbdf77ec4	-0.120847255
